…
32/32 [==============================] - 0s 286us/sample - loss: 0.0921 - acc: 1.0000
WARNING:tensorflow:TensorFlow optimizers do not make it possible to access optimizer attributes or optimizer state after instantiation. As a result, we cannot save the optimizer as part of the model save file. You will have to compile your model again after loading it. Prefer using a Keras optimizer instead (see keras.io/optimizers).
Model: "sequential_11"
_________________________________________________________________
Layer (type)                 Output Shape              Param #   
=================================================================
conv2d_33 (Conv2D)           (None, 59, 79, 32)        160       
_________________________________________________________________
max_pooling2d_33 (MaxPooling (None, 29, 39, 32)        0         
_________________________________________________________________
conv2d_34 (Conv2D)           (None, 27, 37, 64)        18496     
_________________________________________________________________
max_pooling2d_34 (MaxPooling (None, 13, 18, 64)        0         
_________________________________________________________________
conv2d_35 (Conv2D)           (None, 11, 16, 64)        36928     
_________________________________________________________________
max_pooling2d_35 (MaxPooling (None, 5, 8, 64)          0         
_________________________________________________________________
dropout_11 (Dropout)         (None, 5, 8, 64)          0         
_________________________________________________________________
flatten_11 (Flatten)         (None, 2560)              0         
_________________________________________________________________
dense_68 (Dense)             (None, 512)               1311232   
_________________________________________________________________
dense_69 (Dense)             (None, 128)               65664     
_________________________________________________________________
dense_70 (Dense)             (None, 128)               16512     
_________________________________________________________________
dense_71 (Dense)             (None, 4)                 516       
=================================================================
Total params: 1,449,508
Trainable params: 1,449,508
Non-trainable params: 0
_________________________________________________________________
8/8 [==============================] - 0s 21ms/sample - loss: 0.1311 - acc: 1.0000
Test accuracy: 100.0 %
Predictions :  S
Actual :  S